…
INFO:__main__:suffix:                          gpu2_bs16_blr5e-05_bwd0_llr5e-05_lwd0_e30_gas4_i50_attr1_qm1_qn0_ia
INFO:__main__:target_modules:                  None
INFO:__main__:train_attr:                      ['title']
INFO:__main__:use_lora:                        False
INFO:__main__:valid_metric:                    NDCG@10
INFO:__main__:warmup_steps:                    100
INFO:__main__:bos_token: </s>; 2
INFO:__main__:eos_token: </s>; 2
INFO:__main__:unk_token: </s>; 2
INFO:__main__:pad_token: <pad>; 1
INFO:__main__:[2024-01-07 23:00:28]: trainable params: 142786560 || all params: 142786560 || trainable: 100.0
INFO:__main__:OPTRecModel(
  (decoder): OPTDecoder(
    (embed_tokens): Embedding(50265, 768)
    (embed_positions): OPTLearnedPositionalEmbedding(2050, 768)
    (final_layer_norm): LayerNorm((768,), eps=1e-05, elementwise_affine=True)
    (layers): ModuleList(
      (0-11): 12 x OPTDecoderLayer(
        (self_attn): OPTAttention(
          (k_proj): Linear(in_features=768, out_features=768, bias=True)
          (v_proj): Linear(in_features=768, out_features=768, bias=True)
          (q_proj): Linear(in_features=768, out_features=768, bias=True)
          (out_proj): Linear(in_features=768, out_features=768, bias=True)
        )
        (activation_fn): ReLU()
        (self_attn_layer_norm): LayerNorm((768,), eps=1e-05, elementwise_affine=True)
        (fc1): Linear(in_features=768, out_features=3072, bias=True)
        (fc2): Linear(in_features=3072, out_features=768, bias=True)
        (final_layer_norm): LayerNorm((768,), eps=1e-05, elementwise_affine=True)
      )
    )
  )
  (score): Linear(in_features=768, out_features=22855, bias=False)
)
INFO:__main__:[2024-01-07 23:00:28]: trainable params: 142786560 || all params: 142786560 || trainable: 100.0
INFO:__main__:[Mode: train], user num: 56121
INFO:__main__:[Mode: valid], user num: 56198
INFO:__main__:[Mode: test], user num: 56198
INFO:__main__:[Train Data]
INFO:__main__:[Sequence]: 
 Crop-A-Dile Eyelet and Snap Punch Kit by We R Memory Keepers | Includes heavy-duty-plastic carrying case with teal.
…
